…
(torch.load('/kaggle/input/blood_vessel_seg/pytorch/default/1/blood_vessel_seg.pth', map_location=device))\nblood_vessel_model.eval()","metadata":{"trusted":true,"execution":{"iopub.status.busy":"2025-06-25T17:34:57.117642Z","iopub.execute_input":"2025-06-25T17:34:57.118241Z","iopub.status.idle":"2025-06-25T17:34:58.154003Z","shell.execute_reply.started":"2025-06-25T17:34:57.118220Z","shell.execute_reply":"2025-06-25T17:34:58.153381Z"}},"outputs":[{"execution_count":3,"output_type":"execute_result","data":{"text/plain":"ProtoUNet(\n  (inc): DoubleConv(\n    (double_conv): Sequential(\n      (0): Conv2d(3, 64, kernel_size=(3, 3), stride=(1, 1), padding=(1, 1))\n      (1): BatchNorm2d(64, eps=1e-05, momentum=0.1, affine=True, track_running_stats=True)\n      (2): ReLU(inplace=True)\n      (3): Conv2d(64, 64, kernel_size=(3, 3), stride=(1, 1), padding=(1, 1))\n      (4): BatchNorm2d(64, eps=1e-05, momentum=0.1, affine=True, track_running_stats=True)\n      (5): ReLU(inplace=True)\n    )\n  )\n  (down1): Down(\n    (maxpool_conv): Sequential(\n      (0): MaxPool2d(kernel_size=2, stride=2, padding=0, dilation=1, ceil_mode=False)\n      (1): DoubleConv(\n        (double_conv): Sequential(\n          (0): Conv2d(64, 128, kernel_size=(3, 3), stride=(1, 1), padding=(1, 1))\n          (1): BatchNorm2d(128, eps=1e-05, momentum=0.1, affine=True, track_running_stats=True)\n          (2): ReLU(inplace=True)\n          (3): Conv2d(128, 128, kernel_size=(3, 3), stride=(1, 1), padding=(1, 1))\n          (4): BatchNorm2d(128, eps=1e-05, momentum=0.1, affine=True, track_running_stats=True)\n          (5): ReLU(inplace=True)\n        )\n      )\n    )\n  )\n  (down2): Down(\n    (maxpool_conv): Sequential(\n      (0): MaxPool2d(kernel_size=2, stride=2, padding=0, dilation=1, ceil_mode=False)\n      (1): DoubleConv(\n        (double_conv): Sequential(\n          (0): Conv2d(128, 256, kernel_size=(3, 3), stride=(1, 1), padding=(1, 1))\n          (1): BatchNorm2d(256, eps=1e-05, momentum=0.1, affine=True, track_running_stats=True)\n          (2): ReLU(inplace=True)\n          (3): Conv2d(256, 256, kernel_size=(3, 3), stride=(1, 1), padding=(1, 1))\n          (4): BatchNorm2d(256, eps=1e-05, momentum=0.1, affine=True, track_running_stats=True)\n          (5): ReLU(inplace=True)\n        )\n      )\n    )\n  )\n  (down3): Down(\n    (maxpool_conv): Sequential(\n      (0): MaxPool2d(kernel_size=2, stride=2, padding=0, dilation=1, ceil_mode=False)\n      (1): DoubleConv(\n        (double_conv): Sequential(\n          (0): Conv2d(256, 512, kernel_size=(3, 3), stride=(1, 1), padding=(1, 1))\n          (1): BatchNorm2d(512, eps=1e-05, momentum=0.1, affine=True, track_running_stats=True)\n          (2): ReLU(inplace=True)\n          (3): Conv2d(512, 512, kernel_size=(3, 3), stride=(1, 1), padding=(1, 1))\n          (4): BatchNorm2d(512, eps=1e-05, momentum=0.1, affine=True, track_running_stats=True)\n          (5): ReLU(inplace=True)\n        )\n      )\n    )\n  )\n  (bottleneck): DoubleConv(\n    (double_conv): Sequential(\n      (0): Conv2d(512, 512, kernel_size=(3, 3), stride=(1, 1), padding=(1, 1))\n      (1): BatchNorm2d(512, eps=1e-05, momentum=0.1, affine=True, track_running_stats=True)\n      (2): ReLU(inplace=True)\n      (3): Conv2d(512, 512, kernel_size=(3, 3), stride=(1, 1), padding=(1, 1))\n      (4): BatchNorm2d(512, eps=1e-05, momentum=0.1, affine=True, track_running_stats=True)\n      (5): ReLU(inplace=True)\n    )\n  )\n  (att3): AttentionBlock(\n    (W_g): Sequential(\n      (0): Conv2d(512, 128, kernel_size=(1, 1), stride=(1, 1))\n      (1): BatchNorm2d(128, eps=1e-05, momentum=0.1, affine=True, track_running_stats=True)\n    )\n    (W_x): Sequential(\n      (0): Conv2d(256, 128, kernel_size=(1, 1), stride=(1, 1))\n      (1): BatchNorm2d(128, eps=1e-05, momentum=0.1, affine=True, track_running_stats=True)\n    )\n    (psi): Sequential(\n      (0): Conv2d(128, 1, kernel_size=(1, 1), stride=(1, 1))\n      (1): BatchNorm2d(1, eps=1e-05, momentum=0.1, affine=True, track_running_stats=True)\n      (2): Sigmoid()\n    )\n    (relu): ReLU(inplace=True)\n  )\n  (att2): AttentionBlock(\n    (W_g): Sequential(\n      (0): Conv2d(256, 64, kernel_size=(1, 1), stride=(1, 1))\n      (1): BatchNorm2d(64, eps=1e-05, momentum=0.1, affine=True, track_running_stats=True)\n    )\n    (W_x): Sequential(\n      (0): Conv2d(128, 64, kernel_size=(1, 1), stride=(1, 1))\n      (1): BatchNorm2d(64, eps=1e-05, momentum=0.1, affine=True, track_running_stats=True)\n    )\n    (psi): Sequential(\n      (0): Conv2d(64, 1, kernel_size=(1, 1), stride=(1, 1))\n      (1): BatchNorm2d(1, eps=1e-05, momentum=0.1, affine=True, track_running_stats=True)\n      (2): Sigmoid()\n    )\n    (relu): ReLU(inplace=True)\n  )\n  (att1): AttentionBlock(\n    (W_g): Sequential(\n      (0): Conv2d(128, 32, kernel_size=(1, 1), stride=(1, 1))\n      (1): BatchNorm2d(32, eps=1e-05, momentum=0.1, affine=True, track_running_stats=True)\n    )\n    (W_x): Sequential(\n      (0): Conv2d(64, 32, kernel_size=(1, 1), stride=(1, 1))\n      (1): BatchNorm2d(32, eps=1e-05, momentum=0.1, affine=True, track_running_stats=True)\n    )\n    (psi): Sequential(\n      (0): Conv2d(32, 1, kernel_size=(1, 1), stride=(1, 1))\n      (1): BatchNorm2d(1, eps=1e-05, momentum=0.1, affine=True, track_running_stats=True)\n      (2): Sigmoid()\n    )\n    (relu): ReLU(inplace=True)\n  )\n  (up3): Up(\n    (up): Upsample(scale_factor=2.0, mode='bilinear')\n    (conv): DoubleConv(\n      (double_conv): Sequential(\n        (0): Conv2d(768, 256, kernel_size=(3, 3), stride=(1, 1), padding=(1, 1))\n        (1): BatchNorm2d(256, eps=1e-05, momentum=0.1, affine=True, track_running_stats=True)\n        (2): ReLU(inplace=True)\n        (3): Conv2d(256, 256, kernel_size=(3, 3), stride=(1, 1), padding=(1, 1))\n        (4): BatchNorm2d(256, eps=1e-05, momentum=0.1, affine=True, track_running_stats=True)\n        (5): ReLU(inplace=True)\n      )\n    )\n  )\n  (up2): Up(\n    (up): Upsample(scale_factor=2.0, mode='bilinear')\n    (conv): DoubleConv(\n      (double_conv): Sequential(\n        (0): Conv2d(384, 128, kernel_size=(3, 3), stride=(1, 1), padding=(1, 1))\n        (1): BatchNorm2d(128, eps=1e-05, momentum=0.1, affine=True, track_running_stats=True)\n        (2): ReLU(inplace=True)\n        (3): Conv2d(128, 128, kernel_size=(3, 3), stride=(1, 1), padding=(1, 1))\n        (4): BatchNorm2d(128, eps=1e-05, momentum=0.1, affine=True, track_running_stats=True)\n        (5): ReLU(inplace=True)\n      )\n    )\n  )\n  (up1): Up(\n    (up): Upsample(scale_factor=2.0, mode='bilinear')\n    (conv): DoubleConv(\n      (double_conv): Sequential(\n        (0): Conv2d(192, 64, kernel_size=(3, 3), stride=(1, 1), padding=(1, 1))\n        (1): BatchNorm2d(64, eps=1e-05, momentum=0.1, affine=True, track_running_stats=True)\n        (2): ReLU(inplace=True)\n        (3): Conv2d(64, 64, kernel_size=(3, 3), stride=(1, 1), padding=(1, 1))\n        (4): BatchNorm2d(64, eps=1e-05, momentum=0.1, affine=True, track_running_stats=True)\n        (5): ReLU(inplace=True)\n      )\n    )\n  )\n  (outc): Conv2d(64, 1, kernel_size=(1, 1), stride=(1, 1))\n  (proto_layers): ModuleList(\n    (0): ModuleList(\n      (0-4): 5 x Conv2d(64, 64, kernel_size=(1, 1), stride=(1, 1))\n    )\n    (1): ModuleList(\n      (0-4): 5 x Conv2d(128, 128, kernel_size=(1, 1), stride=(1, 1))\n    )\n    (2): ModuleList(\n      (0-4): 5 x Conv2d(256, 256, kernel_size=(1, 1), stride=(1, 1))\n    )\n    (3): ModuleList(\n      (0-
…
del.load_state_dict(torch.load('/kaggle/input/oc_od_seg/pytorch/default/1/oc_od_seg.pth', map_location=device))\nocod_model.eval()","metadata":{"trusted":true,"execution":{"iopub.status.busy":"2025-06-25T17:35:04.595986Z","iopub.execute_input":"2025-06-25T17:35:04.596673Z","iopub.status.idle":"2025-06-25T17:35:04.761873Z","shell.execute_reply.started":"2025-06-25T17:35:04.596649Z","shell.execute_reply":"2025-06-25T17:35:04.761136Z"}},"outputs":[{"execution_count":5,"output_type":"execute_result","data":{"text/plain":"ProtoAttentionUNet(\n  (enc1): ConvBlock(\n    (block): Sequential(\n      (0): Conv2d(3, 64, kernel_size=(3, 3), stride=(1, 1), padding=(1, 1))\n      (1): BatchNorm2d(64, eps=1e-05, momentum=0.1, affine=True, track_running_stats=True)\n      (2): ReLU(inplace=True)\n      (3): Conv2d(64, 64, kernel_size=(3, 3), stride=(1, 1), padding=(1, 1))\n      (4): BatchNorm2d(64, eps=1e-05, momentum=0.1, affine=True, track_running_stats=True)\n      (5): ReLU(inplace=True)\n    )\n  )\n  (enc2): ConvBlock(\n    (block): Sequential(\n      (0): Conv2d(64, 128, kernel_size=(3, 3), stride=(1, 1), padding=(1, 1))\n      (1): BatchNorm2d(128, eps=1e-05, momentum=0.1, affine=True, track_running_stats=True)\n      (2): ReLU(inplace=True)\n      (3): Conv2d(128, 128, kernel_size=(3, 3), stride=(1, 1), padding=(1, 1))\n      (4): BatchNorm2d(128, eps=1e-05, momentum=0.1, affine=True, track_running_stats=True)\n      (5): ReLU(inplace=True)\n    )\n  )\n  (enc3): ConvBlock(\n    (block): Sequential(\n      (0): Conv2d(128, 256, kernel_size=(3, 3), stride=(1, 1), padding=(1, 1))\n      (1): BatchNorm2d(256, eps=1e-05, momentum=0.1, affine=True, track_running_stats=True)\n      (2): ReLU(inplace=True)\n      (3): Conv2d(256, 256, kernel_size=(3, 3), stride=(1, 1), padding=(1, 1))\n      (4): BatchNorm2d(256, eps=1e-05, momentum=0.1, affine=True, track_running_stats=True)\n      (5): ReLU(inplace=True)\n    )\n  )\n  (pool): MaxPool2d(kernel_size=2, stride=2, padding=0, dilation=1, ceil_mode=False)\n  (proj): Conv2d(256, 256, kernel_size=(1, 1), stride=(1, 1))\n  (sim_conv): Conv2d(3, 256, kernel_size=(1, 1), stride=(1, 1))\n  (up3): UpBlock(\n    (up): ConvTranspose2d(256, 128, kernel_size=(2, 2), stride=(2, 2))\n    (att): AttentionGate(\n      (W_g): Sequential(\n        (0): Conv2d(128, 64, kernel_size=(1, 1), stride=(1, 1))\n        (1): BatchNorm2d(64, eps=1e-05, momentum=0.1, affine=True, track_running_stats=True)\n      )\n      (W_x): Sequential(\n        (0): Conv2d(128, 64, kernel_size=(1, 1), stride=(1, 1))\n        (1): BatchNorm2d(64, eps=1e-05, momentum=0.1, affine=True, track_running_stats=True)\n      )\n      (psi): Sequential(\n        (0): Conv2d(64, 1, kernel_size=(1, 1), stride=(1, 1))\n        (1): BatchNorm2d(1, eps=1e-05, momentum=0.1, affine=True, track_running_stats=True)\n        (2): Sigmoid()\n      )\n    )\n    (conv): ConvBlock(\n      (block): Sequential(\n        (0): Conv2d(256, 128, kernel_size=(3, 3), stride=(1, 1), padding=(1, 1))\n        (1): BatchNorm2d(128, eps=1e-05, momentum=0.1, affine=True, track_running_stats=True)\n        (2): ReLU(inplace=True)\n        (3): Conv2d(128, 128, kernel_size=(3, 3), stride=(1, 1), padding=(1, 1))\n        (4): BatchNorm2d(128, eps=1e-05, momentum=0.1, affine=True, track_running_stats=True)\n        (5): ReLU(inplace=True)\n      )\n    )\n  )\n  (up2): UpBlock(\n    (up): ConvTranspose2d(128, 64, kernel_size=(2, 2), stride=(2, 2))\n    (att): AttentionGate(\n      (W_g): Sequential(\n        (0): Conv2d(64, 32, kernel_size=(1, 1), stride=(1, 1))\n        (1): BatchNorm2d(32, eps=1e-05, momentum=0.1, affine=True, track_running_stats=True)\n      )\n      (W_x): Sequential(\n        (0): Conv2d(64, 32, kernel_size=(1, 1), stride=(1, 1))\n        (1): BatchNorm2d(32, eps=1e-05, momentum=0.1, affine=True, track_running_stats=True)\n      )\n      (psi): Sequential(\n        (0): Conv2d(32, 1, kernel_size=(1, 1), stride=(1, 1))\n        (1): BatchNorm2d(1, eps=1e-05, momentum=0.1, affine=True, track_running_stats=True)\n        (2): Sigmoid()\n      )\n    )\n    (conv): ConvBlock(\n      (block): Sequential(\n        (0): Conv2d(128, 64, kernel_size=(3, 3), stride=(1, 1), padding=(1, 1))\n        (1): BatchNorm2d(64, eps=1e-05, momentum=0.1, affine=True, track_running_stats=True)\n        (2): ReLU(inplace=True)\n        (3): Conv2d(64, 64, kernel_size=(3, 3), stride=(1, 1), padding=(1, 1))\n        (4): BatchNorm2d(64, eps=1e-05, momentum=0.1, affine=True, track_running_stats=True)\n        (5): ReLU(inplace=True)\n      )\n    )\n  )\n  (final): Conv2d(64, 3, kernel_size=(1, 1), stride=(1, 1))\n)"},"metadata":{}}],"execution_count":5},{"cell_type":"code","source":"import torch\nimport torch.nn as nn\nimport torch.optim as optim\nfrom torch.utils.data import Dataset, DataLoader\nimport torchvision.transforms as T\nfrom torchvision.models import convnext_tiny\nfrom sklearn.model_selection import train_test_split\nfrom glob import glob\nfrom PIL im
…
